…
Loading CIFAR10 dataset ...
X_train shape: (50000, 32, 32, 3)
50000 train samples
10000 test samples
Converting labels to one-hot  ...
Normalize pixels to [0, 1.0] ...
Sequential construction of network ...
/home/rm/Code-DeepLearningWithKeras/Chapter03/2.keras_CIFAR10_V1.py:79: UserWarning: Update your `Conv2D` call to the Keras 2 API: `Conv2D(64, (3, 3))`
  model.add(Conv2D(64, 3, 3))
_________________________________________________________________
Layer (type)                 Output Shape              Param #   
=================================================================
conv2d_1 (Conv2D)            (None, 32, 32, 32)        896       
_________________________________________________________________
activation_1 (Activation)    (None, 32, 32, 32)        0         
_________________________________________________________________
conv2d_2 (Conv2D)            (None, 32, 32, 32)        9248      
_________________________________________________________________
activation_2 (Activation)    (None, 32, 32, 32)        0         
_________________________________________________________________
max_pooling2d_1 (MaxPooling2 (None, 16, 16, 32)        0         
_________________________________________________________________
dropout_1 (Dropout)          (None, 16, 16, 32)        0         
_________________________________________________________________
conv2d_3 (Conv2D)            (None, 16, 16, 64)        18496     
_________________________________________________________________
activation_3 (Activation)    (None, 16, 16, 64)        0         
_________________________________________________________________
conv2d_4 (Conv2D)            (None, 14, 14, 64)        36928     
_________________________________________________________________
activation_4 (Activation)    (None, 14, 14, 64)        0         
_________________________________________________________________
max_pooling2d_2 (MaxPooling2 (None, 7, 7, 64)          0         
_________________________________________________________________
dropout_2 (Dropout)          (None, 7, 7, 64)          0         
_________________________________________________________________
flatten_1 (Flatten)          (None, 3136)              0         
_________________________________________________________________
dense_1 (Dense)              (None, 512)               1606144   
_________________________________________________________________
activation_5 (Activation)    (None, 512)               0         
_________________________________________________________________
dropout_3 (Dropout)          (None, 512)               0         
_________________________________________________________________
dense_2 (Dense)              (None, 10)                5130      
_________________________________________________________________
activation_6 (Activation)    (None, 10)                0         
=================================================================
Total params: 1,676,842
Trainable params: 1,676,842
Non-trainable params: 0
_________________________________________________________________
Compiling the model ..
Training ...
Train on 40000 samples, validate on 10000 samples
Epoch 1/40
40000/40000 [==============================] - 748s 19ms/step - loss: 1.8066 - acc: 0.3480 - val_loss: 1.4540 - val_acc: 0.4744
…
